…
s=True, show_conf=True, show_labels=True, simplify=True, single_cls=False, source=None, split=val, stream_buffer=False, task=detect, time=None, tracker=botsort.yaml, translate=0.1, val=True, verbose=True, vid_stride=1, visualize=False, warmup_bias_lr=0.1, warmup_epochs=3.0, warmup_momentum=0.8, weight_decay=0.0005, workers=8, workspace=None
Overriding model.yaml nc=80 with nc=8
WARNING ⚠️ no model scale passed. Assuming scale='n'.

                   from  n    params  module                                       arguments                     
  0                  -1  1       464  ultralytics.nn.modules.conv.Conv             [3, 16, 3, 2]                 
  1                  -1  1      4672  ultralytics.nn.modules.conv.Conv             [16, 32, 3, 2]                
  2                  -1  1      6640  ultralytics.nn.modules.block.C3k2            [32, 64, 1, False, 0.25]      
  3                  -1  1     36992  ultralytics.nn.modules.conv.Conv             [64, 64, 3, 2]                
  4                  -1  1     26080  ultralytics.nn.modules.block.C3k2            [64, 128, 1, False, 0.25]     
  5                  -1  1    147712  ultralytics.nn.modules.conv.Conv             [128, 128, 3, 2]              
  6                  -1  1     87040  ultralytics.nn.modules.block.C3k2            [128, 128, 1, True]           
  7                  -1  1    295424  ultralytics.nn.modules.conv.Conv             [128, 256, 3, 2]              
  8                  -1  1    346112  ultralytics.nn.modules.block.C3k2            [256, 256, 1, True]           
  9                  -1  1       300  ultralytics.nn.modules.conv.TripletAttention [256]                         
 10                  -1  1    164608  ultralytics.nn.modules.block.SPPF            [256, 256, 5]                 
 11                  -1  1    249728  ultralytics.nn.modules.block.C2PSA           [256, 256, 1]                 
 12                  -1  1         0  torch.nn.modules.upsampling.Upsample         [None, 2, 'nearest']          
 13             [-1, 6]  1         0  ultralytics.nn.modules.conv.Concat           [1]                           
 14                  -1  1    111296  ultralytics.nn.modules.block.C3k2            [384, 128, 1, False]          
 15                  -1  1         0  torch.nn.modules.upsampling.Upsample         [None, 2, 'nearest']          
 16             [-1, 4]  1         0  ultralytics.nn.modules.conv.Concat           [1]                           
 17                  -1  1     32096  ultralytics.nn.modules.block.C3k2            [256, 64, 1, False]           
 18                  -1  1     36992  ultralytics.nn.modules.conv.Conv             [64, 64, 3, 2]                
 19            [-1, 14]  1         0  ultralytics.nn.modules.conv.Concat           [1]                           
 20                  -1  1     86720  ultralytics.nn.modules.block.C3k2            [192, 128, 1, False]          
 21                  -1  1    147712  ultralytics.nn.modules.conv.Conv             [128, 128, 3, 2]              
 22            [-1, 11]  1         0  ultralytics.nn.modules.conv.Concat           [1]                           
 23                  -1  1    378880  ultralytics.nn.modules.block.C3k2            [384, 256, 1, True]           
 24        [17, 20, 23]  1    432232  ultralytics.nn.modules.head.Detect           [8, 16, None, [64, 128, 256]] 
YOLO11-t summary: 194 layers, 2,591,700 parameters, 2,591,684 gradients, 6.5 GFLOPs

Freezing layer 'model.24.dfl.conv.weight'
[34m[1mAMP: [0mrunning Automatic Mixed Precision (AMP) checks...
[34m[1mAMP: [0mchecks passed ✅
[34m[1mtrain: [0mFast image access ✅ (ping: 0.0±0.0 ms, read: 2881.2±1451.3 MB/s, size: 259.4 KB)
[K[34m[1mtrain: [0mScanning /root/autodl-tmp/ultralytics/datasets/dair_v2x_i/labels/train.cache... 4940 images, 0 backgrounds, 0 corrupt: 100% ━━━━━━━━━━━━ 4940/4940 828.8Mit/s 0.0s
…
